{"keras_version": "2.2.4", "config": {"layers": [{"class_name": "InputLayer", "config": {"dtype": "float32", "batch_input_shape": [null, 100, 30], "name": "input_4", "sparse": false}, "name": "input_4", "inbound_nodes": []}, {"class_name": "InputLayer", "config": {"dtype": "float32", "batch_input_shape": [null, 100], "name": "input_2", "sparse": false}, "name": "input_2", "inbound_nodes": []}, {"class_name": "TimeDistributed", "config": {"layer": {"class_name": "Embedding", "config": {"batch_input_shape": [null, 30], "output_dim": 300, "embeddings_regularizer": null, "input_length": 30, "mask_zero": false, "name": "embedding_2", "dtype": "float32", "input_dim": 137, "trainable": true, "embeddings_initializer": {"class_name": "RandomUniform", "config": {"maxval": 0.05, "seed": null, "minval": -0.05}}, "embeddings_constraint": null, "activity_regularizer": null}}, "trainable": true, "name": "time_distributed_1"}, "name": "time_distributed_1", "inbound_nodes": [[["input_4", 0, 0, {}]]]}, {"class_name": "Embedding", "config": {"batch_input_shape": [null, 100], "output_dim": 4080, "embeddings_regularizer": null, "input_length": 100, "mask_zero": false, "name": "embedding_1", "dtype": "float32", "input_dim": 28192, "trainable": false, "embeddings_initializer": {"class_name": "RandomUniform", "config": {"maxval": 0.05, "seed": null, "minval": -0.05}}, "embeddings_constraint": null, "activity_regularizer": null}, "name": "embedding_1", "inbound_nodes": [[["input_2", 0, 0, {}]]]}, {"class_name": "TimeDistributed", "config": {"layer": {"class_name": "Conv1D", "config": {"padding": "same", "dilation_rate": [1], "kernel_regularizer": null, "trainable": true, "kernel_constraint": null, "bias_initializer": {"class_name": "Zeros", "config": {}}, "filters": 20, "bias_constraint": null, "kernel_size": [1], "activation": "linear", "use_bias": true, "bias_regularizer": null, "data_format": "channels_last", "kernel_initializer": {"class_name": "VarianceScaling", "config": {"distribution": "uniform", "seed": null, "mode": "fan_avg", "scale": 1.0}}, "strides": [1], "name": "conv1d_6", "activity_regularizer": null}}, "trainable": true, "name": "time_distributed_2"}, "name": "time_distributed_2", "inbound_nodes": [[["time_distributed_1", 0, 0, {}]]]}, {"class_name": "TimeDistributed", "config": {"layer": {"class_name": "Conv1D", "config": {"padding": "same", "dilation_rate": [1], "kernel_regularizer": null, "trainable": true, "kernel_constraint": null, "bias_initializer": {"class_name": "Zeros", "config": {}}, "filters": 40, "bias_constraint": null, "kernel_size": [2], "activation": "linear", "use_bias": true, "bias_regularizer": null, "data_format": "channels_last", "kernel_initializer": {"class_name": "VarianceScaling", "config": {"distribution": "uniform", "seed": null, "mode": "fan_avg", "scale": 1.0}}, "strides": [1], "name": "conv1d_7", "activity_regularizer": null}}, "trainable": true, "name": "time_distributed_6"}, "name": "time_distributed_6", "inbound_nodes": [[["time_distributed_1", 0, 0, {}]]]}, {"class_name": "TimeDistributed", "config": {"layer": {"class_name": "Conv1D", "config": {"padding": "same", "dilation_rate": [1], "kernel_regularizer": null, "trainable": true, "kernel_constraint": null, "bias_initializer": {"class_name": "Zeros", "config": {}}, "filters": 60, "bias_constraint": null, "kernel_size": [3], "activation": "linear", "use_bias": true, "bias_regularizer": null, "data_format": "channels_last", "kernel_initializer": {"class_name": "VarianceScaling", "config": {"distribution": "uniform", "seed": null, "mode": "fan_avg", "scale": 1.0}}, "strides": [1], "name": "conv1d_8", "activity_regularizer": null}}, "trainable": true, "name": "time_distributed_10"}, "name": "time_distributed_10", "inbound_nodes": [[["time_distributed_1", 0, 0, {}]]]}, {"class_name": "TimeDistributed", "config": {"layer": {"class_name": "Conv1D", "config": {"padding": "same", "dilation_rate": [1], "kernel_regularizer": null, "trainable": true, "kernel_constraint": null, "bias_initializer": {"class_name": "Zeros", "config": {}}, "filters": 80, "bias_constraint": null, "kernel_size": [4], "activation": "linear", "use_bias": true, "bias_regularizer": null, "data_format": "channels_last", "kernel_initializer": {"class_name": "VarianceScaling", "config": {"distribution": "uniform", "seed": null, "mode": "fan_avg", "scale": 1.0}}, "strides": [1], "name": "conv1d_9", "activity_regularizer": null}}, "trainable": true, "name": "time_distributed_14"}, "name": "time_distributed_14", "inbound_nodes": [[["time_distributed_1", 0, 0, {}]]]}, {"class_name": "TimeDistributed", "config": {"layer": {"class_name": "Conv1D", "config": {"padding": "same", "dilation_rate": [1], "kernel_regularizer": null, "trainable": true, "kernel_constraint": null, "bias_initializer": {"class_name": "Zeros", "config": {}}, "filters": 100, "bias_constraint": null, "kernel_size": [5], "activation": "linear", "use_bias": true, "bias_regularizer": null, "data_format": "channels_last", "kernel_initializer": {"class_name": "VarianceScaling", "config": {"distribution": "uniform", "seed": null, "mode": "fan_avg", "scale": 1.0}}, "strides": [1], "name": "conv1d_10", "activity_regularizer": null}}, "trainable": true, "name": "time_distributed_18"}, "name": "time_distributed_18", "inbound_nodes": [[["time_distributed_1", 0, 0, {}]]]}, {"class_name": "Conv1D", "config": {"padding": "same", "dilation_rate": [1], "kernel_regularizer": null, "trainable": true, "kernel_constraint": null, "bias_initializer": {"class_name": "Zeros", "config": {}}, "filters": 20, "bias_constraint": null, "kernel_size": [1], "activation": "linear", "use_bias": true, "bias_regularizer": null, "data_format": "channels_last", "kernel_initializer": {"class_name": "VarianceScaling", "config": {"distribution": "uniform", "seed": null, "mode": "fan_avg", "scale": 1.0}}, "strides": [1], "name": "conv1d_1", "activity_regularizer": null}, "name": "conv1d_1", "inbound_nodes": [[["embedding_1", 0, 0, {}]]]}, {"class_name": "Conv1D", "config": {"padding": "same", "dilation_rate": [1], "kernel_regularizer": null, "trainable": true, "kernel_constraint": null, "bias_initializer": {"class_name": "Zeros", "config": {}}, "filters": 40, "bias_constraint": null, "kernel_size": [2], "activation": "linear", "use_bias": true, "bias_regularizer": null, "data_format": "channels_last", "kernel_initializer": {"class_name": "VarianceScaling", "config": {"distribution": "uniform", "seed": null, "mode": "fan_avg", "scale": 1.0}}, "strides": [1], "name": "conv1d_2", "activity_regularizer": null}, "name": "conv1d_2", "inbound_nodes": [[["embedding_1", 0, 0, {}]]]}, {"class_name": "Conv1D", "config": {"padding": "same", "dilation_rate": [1], "kernel_regularizer": null, "trainable": true, "kernel_constraint": null, "bias_initializer": {"class_name": "Zeros", "config": {}}, "filters": 60, "bias_constraint": null, "kernel_size": [3], "activation": "linear", "use_bias": true, "bias_regularizer": null, "data_format": "channels_last", "kernel_initializer": {"class_name": "VarianceScaling", "config": {"distribution": "uniform", "seed": null, "mode": "fan_avg", "scale": 1.0}}, "strides": [1], "name": "conv1d_3", "activity_regularizer": null}, "name": "conv1d_3", "inbound_nodes": [[["embedding_1", 0, 0, {}]]]}, {"class_name": "Conv1D", "config": {"padding": "same", "dilation_rate": [1], "kernel_regularizer": null, "trainable": true, "kernel_constraint": null, "bias_initializer": {"class_name": "Zeros", "config": {}}, "filters": 80, "bias_constraint": null, "kernel_size": [4], "activation": "linear", "use_bias": true, "bias_regularizer": null, "data_format": "channels_last", "kernel_initializer": {"class_name": "VarianceScaling", "config": {"distribution": "uniform", "seed": null, "mode": "fan_avg", "scale": 1.0}}, "strides": [1], "name": "conv1d_4", "activity_regularizer": null}, "name": "conv1d_4", "inbound_nodes": [[["embedding_1", 0, 0, {}]]]}, {"class_name": "Conv1D", "config": {"padding": "same", "dilation_rate": [1], "kernel_regularizer": null, "trainable": true, "kernel_constraint": null, "bias_initializer": {"class_name": "Zeros", "config": {}}, "filters": 100, "bias_constraint": null, "kernel_size": [5], "activation": "linear", "use_bias": true, "bias_regularizer": null, "data_format": "channels_last", "kernel_initializer": {"class_name": "VarianceScaling", "config": {"distribution": "uniform", "seed": null, "mode": "fan_avg", "scale": 1.0}}, "strides": [1], "name": "conv1d_5", "activity_regularizer": null}, "name": "conv1d_5", "inbound_nodes": [[["embedding_1", 0, 0, {}]]]}, {"class_name": "TimeDistributed", "config": {"layer": {"class_name": "BatchNormalization", "config": {"beta_initializer": {"class_name": "Zeros", "config": {}}, "name": "batch_normalization_6", "beta_constraint": null, "center": true, "momentum": 0.99, "moving_mean_initializer": {"class_name": "Zeros", "config": {}}, "scale": true, "gamma_constraint": null, "moving_variance_initializer": {"class_name": "Ones", "config": {}}, "beta_regularizer": null, "trainable": true, "axis": -1, "gamma_initializer": {"class_name": "Ones", "config": {}}, "epsilon": 0.001, "gamma_regularizer": null}}, "trainable": true, "name": "time_distributed_3"}, "name": "time_distributed_3", "inbound_nodes": [[["time_distributed_2", 0, 0, {}]]]}, {"class_name": "TimeDistributed", "config": {"layer": {"class_name": "BatchNormalization", "config": {"beta_initializer": {"class_name": "Zeros", "config": {}}, "name": "batch_normalization_7", "beta_constraint": null, "center": true, "momentum": 0.99, "moving_mean_initializer": {"class_name": "Zeros", "config": {}}, "scale": true, "gamma_constraint": null, "moving_variance_initializer": {"class_name": "Ones", "config": {}}, "beta_regularizer": null, "trainable": true, "axis": -1, "gamma_initializer": {"class_name": "Ones", "config": {}}, "epsilon": 0.001, "gamma_regularizer": null}}, "trainable": true, "name": "time_distributed_7"}, "name": "time_distributed_7", "inbound_nodes": [[["time_distributed_6", 0, 0, {}]]]}, {"class_name": "TimeDistributed", "config": {"layer": {"class_name": "BatchNormalization", "config": {"beta_initializer": {"class_name": "Zeros", "config": {}}, "name": "batch_normalization_8", "beta_constraint": null, "center": true, "momentum": 0.99, "moving_mean_initializer": {"class_name": "Zeros", "config": {}}, "scale": true, "gamma_constraint": null, "moving_variance_initializer": {"class_name": "Ones", "config": {}}, "beta_regularizer": null, "trainable": true, "axis": -1, "gamma_initializer": {"class_name": "Ones", "config": {}}, "epsilon": 0.001, "gamma_regularizer": null}}, "trainable": true, "name": "time_distributed_11"}, "name": "time_distributed_11", "inbound_nodes": [[["time_distributed_10", 0, 0, {}]]]}, {"class_name": "TimeDistributed", "config": {"layer": {"class_name": "BatchNormalization", "config": {"beta_initializer": {"class_name": "Zeros", "config": {}}, "name": "batch_normalization_9", "beta_constraint": null, "center": true, "momentum": 0.99, "moving_mean_initializer": {"class_name": "Zeros", "config": {}}, "scale": true, "gamma_constraint": null, "moving_variance_initializer": {"class_name": "Ones", "config": {}}, "beta_regularizer": null, "trainable": true, "axis": -1, "gamma_initializer": {"class_name": "Ones", "config": {}}, "epsilon": 0.001, "gamma_regularizer": null}}, "trainable": true, "name": "time_distributed_15"}, "name": "time_distributed_15", "inbound_nodes": [[["time_distributed_14", 0, 0, {}]]]}, {"class_name": "TimeDistributed", "config": {"layer": {"class_name": "BatchNormalization", "config": {"beta_initializer": {"class_name": "Zeros", "config": {}}, "name": "batch_normalization_10", "beta_constraint": null, "center": true, "momentum": 0.99, "moving_mean_initializer": {"class_name": "Zeros", "config": {}}, "scale": true, "gamma_constraint": null, "moving_variance_initializer": {"class_name": "Ones", "config": {}}, "beta_regularizer": null, "trainable": true, "axis": -1, "gamma_initializer": {"class_name": "Ones", "config": {}}, "epsilon": 0.001, "gamma_regularizer": null}}, "trainable": true, "name": "time_distributed_19"}, "name": "time_distributed_19", "inbound_nodes": [[["time_distributed_18", 0, 0, {}]]]}, {"class_name": "BatchNormalization", "config": {"beta_initializer": {"class_name": "Zeros", "config": {}}, "name": "batch_normalization_1", "beta_constraint": null, "center": true, "momentum": 0.99, "moving_mean_initializer": {"class_name": "Zeros", "config": {}}, "scale": true, "gamma_constraint": null, "moving_variance_initializer": {"class_name": "Ones", "config": {}}, "beta_regularizer": null, "trainable": true, "axis": -1, "gamma_initializer": {"class_name": "Ones", "config": {}}, "epsilon": 0.001, "gamma_regularizer": null}, "name": "batch_normalization_1", "inbound_nodes": [[["conv1d_1", 0, 0, {}]]]}, {"class_name": "BatchNormalization", "config": {"beta_initializer": {"class_name": "Zeros", "config": {}}, "name": "batch_normalization_2", "beta_constraint": null, "center": true, "momentum": 0.99, "moving_mean_initializer": {"class_name": "Zeros", "config": {}}, "scale": true, "gamma_constraint": null, "moving_variance_initializer": {"class_name": "Ones", "config": {}}, "beta_regularizer": null, "trainable": true, "axis": -1, "gamma_initializer": {"class_name": "Ones", "config": {}}, "epsilon": 0.001, "gamma_regularizer": null}, "name": "batch_normalization_2", "inbound_nodes": [[["conv1d_2", 0, 0, {}]]]}, {"class_name": "BatchNormalization", "config": {"beta_initializer": {"class_name": "Zeros", "config": {}}, "name": "batch_normalization_3", "beta_constraint": null, "center": true, "momentum": 0.99, "moving_mean_initializer": {"class_name": "Zeros", "config": {}}, "scale": true, "gamma_constraint": null, "moving_variance_initializer": {"class_name": "Ones", "config": {}}, "beta_regularizer": null, "trainable": true, "axis": -1, "gamma_initializer": {"class_name": "Ones", "config": {}}, "epsilon": 0.001, "gamma_regularizer": null}, "name": "batch_normalization_3", "inbound_nodes": [[["conv1d_3", 0, 0, {}]]]}, {"class_name": "BatchNormalization", "config": {"beta_initializer": {"class_name": "Zeros", "config": {}}, "name": "batch_normalization_4", "beta_constraint": null, "center": true, "momentum": 0.99, "moving_mean_initializer": {"class_name": "Zeros", "config": {}}, "scale": true, "gamma_constraint": null, "moving_variance_initializer": {"class_name": "Ones", "config": {}}, "beta_regularizer": null, "trainable": true, "axis": -1, "gamma_initializer": {"class_name": "Ones", "config": {}}, "epsilon": 0.001, "gamma_regularizer": null}, "name": "batch_normalization_4", "inbound_nodes": [[["conv1d_4", 0, 0, {}]]]}, {"class_name": "BatchNormalization", "config": {"beta_initializer": {"class_name": "Zeros", "config": {}}, "name": "batch_normalization_5", "beta_constraint": null, "center": true, "momentum": 0.99, "moving_mean_initializer": {"class_name": "Zeros", "config": {}}, "scale": true, "gamma_constraint": null, "moving_variance_initializer": {"class_name": "Ones", "config": {}}, "beta_regularizer": null, "trainable": true, "axis": -1, "gamma_initializer": {"class_name": "Ones", "config": {}}, "epsilon": 0.001, "gamma_regularizer": null}, "name": "batch_normalization_5", "inbound_nodes": [[["conv1d_5", 0, 0, {}]]]}, {"class_name": "TimeDistributed", "config": {"layer": {"class_name": "Activation", "config": {"activation": "tanh", "trainable": true, "name": "activation_7"}}, "trainable": true, "name": "time_distributed_4"}, "name": "time_distributed_4", "inbound_nodes": [[["time_distributed_3", 0, 0, {}]]]}, {"class_name": "TimeDistributed", "config": {"layer": {"class_name": "Activation", "config": {"activation": "tanh", "trainable": true, "name": "activation_8"}}, "trainable": true, "name": "time_distributed_8"}, "name": "time_distributed_8", "inbound_nodes": [[["time_distributed_7", 0, 0, {}]]]}, {"class_name": "TimeDistributed", "config": {"layer": {"class_name": "Activation", "config": {"activation": "tanh", "trainable": true, "name": "activation_9"}}, "trainable": true, "name": "time_distributed_12"}, "name": "time_distributed_12", "inbound_nodes": [[["time_distributed_11", 0, 0, {}]]]}, {"class_name": "TimeDistributed", "config": {"layer": {"class_name": "Activation", "config": {"activation": "tanh", "trainable": true, "name": "activation_10"}}, "trainable": true, "name": "time_distributed_16"}, "name": "time_distributed_16", "inbound_nodes": [[["time_distributed_15", 0, 0, {}]]]}, {"class_name": "TimeDistributed", "config": {"layer": {"class_name": "Activation", "config": {"activation": "tanh", "trainable": true, "name": "activation_11"}}, "trainable": true, "name": "time_distributed_20"}, "name": "time_distributed_20", "inbound_nodes": [[["time_distributed_19", 0, 0, {}]]]}, {"class_name": "Activation", "config": {"activation": "tanh", "trainable": true, "name": "activation_1"}, "name": "activation_1", "inbound_nodes": [[["batch_normalization_1", 0, 0, {}]]]}, {"class_name": "Activation", "config": {"activation": "tanh", "trainable": true, "name": "activation_2"}, "name": "activation_2", "inbound_nodes": [[["batch_normalization_2", 0, 0, {}]]]}, {"class_name": "Activation", "config": {"activation": "tanh", "trainable": true, "name": "activation_3"}, "name": "activation_3", "inbound_nodes": [[["batch_normalization_3", 0, 0, {}]]]}, {"class_name": "Activation", "config": {"activation": "tanh", "trainable": true, "name": "activation_4"}, "name": "activation_4", "inbound_nodes": [[["batch_normalization_4", 0, 0, {}]]]}, {"class_name": "Activation", "config": {"activation": "tanh", "trainable": true, "name": "activation_5"}, "name": "activation_5", "inbound_nodes": [[["batch_normalization_5", 0, 0, {}]]]}, {"class_name": "TimeDistributed", "config": {"layer": {"class_name": "GlobalMaxPooling1D", "config": {"data_format": "channels_last", "trainable": true, "name": "global_max_pooling1d_1"}}, "trainable": true, "name": "time_distributed_5"}, "name": "time_distributed_5", "inbound_nodes": [[["time_distributed_4", 0, 0, {}]]]}, {"class_name": "TimeDistributed", "config": {"layer": {"class_name": "GlobalMaxPooling1D", "config": {"data_format": "channels_last", "trainable": true, "name": "global_max_pooling1d_2"}}, "trainable": true, "name": "time_distributed_9"}, "name": "time_distributed_9", "inbound_nodes": [[["time_distributed_8", 0, 0, {}]]]}, {"class_name": "TimeDistributed", "config": {"layer": {"class_name": "GlobalMaxPooling1D", "config": {"data_format": "channels_last", "trainable": true, "name": "global_max_pooling1d_3"}}, "trainable": true, "name": "time_distributed_13"}, "name": "time_distributed_13", "inbound_nodes": [[["time_distributed_12", 0, 0, {}]]]}, {"class_name": "TimeDistributed", "config": {"layer": {"class_name": "GlobalMaxPooling1D", "config": {"data_format": "channels_last", "trainable": true, "name": "global_max_pooling1d_4"}}, "trainable": true, "name": "time_distributed_17"}, "name": "time_distributed_17", "inbound_nodes": [[["time_distributed_16", 0, 0, {}]]]}, {"class_name": "TimeDistributed", "config": {"layer": {"class_name": "GlobalMaxPooling1D", "config": {"data_format": "channels_last", "trainable": true, "name": "global_max_pooling1d_5"}}, "trainable": true, "name": "time_distributed_21"}, "name": "time_distributed_21", "inbound_nodes": [[["time_distributed_20", 0, 0, {}]]]}, {"class_name": "Concatenate", "config": {"axis": -1, "trainable": true, "name": "cnn_concat"}, "name": "cnn_concat", "inbound_nodes": [[["activation_1", 0, 0, {}], ["activation_2", 0, 0, {}], ["activation_3", 0, 0, {}], ["activation_4", 0, 0, {}], ["activation_5", 0, 0, {}]]]}, {"class_name": "Concatenate", "config": {"axis": -1, "trainable": true, "name": "concatenate_1"}, "name": "concatenate_1", "inbound_nodes": [[["time_distributed_5", 0, 0, {}], ["time_distributed_9", 0, 0, {}], ["time_distributed_13", 0, 0, {}], ["time_distributed_17", 0, 0, {}], ["time_distributed_21", 0, 0, {}]]]}, {"class_name": "InputLayer", "config": {"dtype": "float32", "batch_input_shape": [null, 100], "name": "input_1", "sparse": false}, "name": "input_1", "inbound_nodes": []}, {"class_name": "Model", "config": {"layers": [{"config": {"dtype": "float32", "batch_input_shape": [null, 300], "name": "input_3", "sparse": false}, "class_name": "InputLayer", "name": "input_3", "inbound_nodes": []}, {"config": {"kernel_regularizer": null, "trainable": true, "units": 300, "bias_initializer": {"config": {"value": -2}, "class_name": "Constant"}, "bias_constraint": null, "activation": "sigmoid", "use_bias": true, "bias_regularizer": null, "kernel_initializer": {"config": {"distribution": "uniform", "seed": null, "mode": "fan_avg", "scale": 1.0}, "class_name": "VarianceScaling"}, "kernel_constraint": null, "name": "dense_1", "activity_regularizer": null}, "class_name": "Dense", "name": "dense_1", "inbound_nodes": [[["input_3", 0, 0, {}]]]}, {"config": {"kernel_regularizer": null, "trainable": true, "units": 300, "bias_initializer": {"config": {}, "class_name": "Zeros"}, "bias_constraint": null, "activation": "linear", "use_bias": true, "bias_regularizer": null, "kernel_initializer": {"config": {"distribution": "uniform", "seed": null, "mode": "fan_avg", "scale": 1.0}, "class_name": "VarianceScaling"}, "kernel_constraint": null, "name": "dense_2", "activity_regularizer": null}, "class_name": "Dense", "name": "dense_2", "inbound_nodes": [[["input_3", 0, 0, {}]]]}, {"config": {"activation": "relu", "trainable": true, "name": "activation_6"}, "class_name": "Activation", "name": "activation_6", "inbound_nodes": [[["dense_2", 0, 0, {}]]]}, {"config": {"output_shape": [300], "output_shape_type": "raw", "function": ["4wEAAAAAAAAAAQAAAAIAAABTAAAAcwgAAABkAQB8AAAYUykCTmcAAAAAAADwP6kAKQHaAXhyAQAA\nAHIBAAAA+kcvaG9tZS9tLmRvbXJhY2hldi9yZXBvcy9jb21wZXRpdGlvbnMvTUVERE9DQU4vbW9k\nZWxzL3NpbXBsZV9ubl9tb2RlbC5wedoIPGxhbWJkYT7gAAAAcwAAAAA=\n", null, null], "arguments": {}, "function_type": "lambda", "name": "lambda_1", "trainable": true}, "class_name": "Lambda", "name": "lambda_1", "inbound_nodes": [[["dense_1", 0, 0, {}]]]}, {"config": {"trainable": true, "name": "multiply_1"}, "class_name": "Multiply", "name": "multiply_1", "inbound_nodes": [[["dense_1", 0, 0, {}], ["activation_6", 0, 0, {}]]]}, {"config": {"trainable": true, "name": "multiply_2"}, "class_name": "Multiply", "name": "multiply_2", "inbound_nodes": [[["lambda_1", 0, 0, {}], ["input_3", 0, 0, {}]]]}, {"config": {"trainable": true, "name": "add_1"}, "class_name": "Add", "name": "add_1", "inbound_nodes": [[["multiply_1", 0, 0, {}], ["multiply_2", 0, 0, {}]]]}], "input_layers": [["input_3", 0, 0]], "name": "model_1", "output_layers": [["add_1", 0, 0]]}, "name": "model_1", "inbound_nodes": [[["cnn_concat", 0, 0, {}]]]}, {"class_name": "TimeDistributed", "config": {"layer": {"class_name": "Model", "config": {"layers": [{"config": {"dtype": "float32", "batch_input_shape": [null, 300], "name": "input_5", "sparse": false}, "class_name": "InputLayer", "name": "input_5", "inbound_nodes": []}, {"config": {"kernel_regularizer": null, "trainable": true, "units": 300, "bias_initializer": {"config": {"value": -2}, "class_name": "Constant"}, "bias_constraint": null, "activation": "sigmoid", "use_bias": true, "bias_regularizer": null, "kernel_initializer": {"config": {"distribution": "uniform", "seed": null, "mode": "fan_avg", "scale": 1.0}, "class_name": "VarianceScaling"}, "kernel_constraint": null, "name": "dense_3", "activity_regularizer": null}, "class_name": "Dense", "name": "dense_3", "inbound_nodes": [[["input_5", 0, 0, {}]]]}, {"config": {"kernel_regularizer": null, "trainable": true, "units": 300, "bias_initializer": {"config": {}, "class_name": "Zeros"}, "bias_constraint": null, "activation": "linear", "use_bias": true, "bias_regularizer": null, "kernel_initializer": {"config": {"distribution": "uniform", "seed": null, "mode": "fan_avg", "scale": 1.0}, "class_name": "VarianceScaling"}, "kernel_constraint": null, "name": "dense_4", "activity_regularizer": null}, "class_name": "Dense", "name": "dense_4", "inbound_nodes": [[["input_5", 0, 0, {}]]]}, {"config": {"activation": "relu", "trainable": true, "name": "activation_12"}, "class_name": "Activation", "name": "activation_12", "inbound_nodes": [[["dense_4", 0, 0, {}]]]}, {"config": {"output_shape": [300], "output_shape_type": "raw", "function": ["4wEAAAAAAAAAAQAAAAIAAABTAAAAcwgAAABkAQB8AAAYUykCTmcAAAAAAADwP6kAKQHaAXhyAQAA\nAHIBAAAA+kcvaG9tZS9tLmRvbXJhY2hldi9yZXBvcy9jb21wZXRpdGlvbnMvTUVERE9DQU4vbW9k\nZWxzL3NpbXBsZV9ubl9tb2RlbC5wedoIPGxhbWJkYT4FAQAAcwAAAAA=\n", null, null], "arguments": {}, "function_type": "lambda", "name": "lambda_2", "trainable": true}, "class_name": "Lambda", "name": "lambda_2", "inbound_nodes": [[["dense_3", 0, 0, {}]]]}, {"config": {"trainable": true, "name": "multiply_3"}, "class_name": "Multiply", "name": "multiply_3", "inbound_nodes": [[["dense_3", 0, 0, {}], ["activation_12", 0, 0, {}]]]}, {"config": {"trainable": true, "name": "multiply_4"}, "class_name": "Multiply", "name": "multiply_4", "inbound_nodes": [[["lambda_2", 0, 0, {}], ["input_5", 0, 0, {}]]]}, {"config": {"trainable": true, "name": "add_2"}, "class_name": "Add", "name": "add_2", "inbound_nodes": [[["multiply_3", 0, 0, {}], ["multiply_4", 0, 0, {}]]]}], "input_layers": [["input_5", 0, 0]], "name": "model_2", "output_layers": [["add_2", 0, 0]]}}, "trainable": true, "name": "time_distributed_22"}, "name": "time_distributed_22", "inbound_nodes": [[["concatenate_1", 0, 0, {}]]]}, {"class_name": "Embedding", "config": {"batch_input_shape": [null, 100], "output_dim": 300, "embeddings_regularizer": null, "input_length": 100, "mask_zero": false, "name": "word_embedding", "dtype": "float32", "input_dim": 28192, "trainable": false, "embeddings_initializer": {"class_name": "RandomUniform", "config": {"maxval": 0.05, "seed": null, "minval": -0.05}}, "embeddings_constraint": null, "activity_regularizer": null}, "name": "word_embedding", "inbound_nodes": [[["input_1", 0, 0, {}]]]}, {"class_name": "Concatenate", "config": {"axis": -1, "trainable": true, "name": "concatenate_2"}, "name": "concatenate_2", "inbound_nodes": [[["model_1", 1, 0, {}], ["time_distributed_22", 0, 0, {}], ["word_embedding", 0, 0, {}]]]}, {"class_name": "Bidirectional", "config": {"layer": {"class_name": "LSTM", "config": {"kernel_regularizer": null, "go_backwards": false, "units": 1024, "recurrent_constraint": null, "bias_initializer": {"class_name": "Zeros", "config": {}}, "bias_constraint": null, "implementation": 1, "return_sequences": true, "unit_forget_bias": true, "unroll": false, "recurrent_initializer": {"class_name": "Orthogonal", "config": {"gain": 1.0, "seed": null}}, "use_bias": true, "kernel_initializer": {"class_name": "VarianceScaling", "config": {"distribution": "uniform", "seed": null, "mode": "fan_avg", "scale": 1.0}}, "kernel_constraint": null, "return_state": true, "name": "lstm_1", "activity_regularizer": null, "stateful": false, "recurrent_dropout": 0.0, "recurrent_regularizer": null, "activation": "tanh", "recurrent_activation": "hard_sigmoid", "bias_regularizer": null, "trainable": true, "dropout": 0.0}}, "trainable": true, "merge_mode": "concat", "name": "bidirectional_1"}, "name": "bidirectional_1", "inbound_nodes": [[["concatenate_2", 0, 0, {}]]]}, {"class_name": "Bidirectional", "config": {"layer": {"class_name": "LSTM", "config": {"kernel_regularizer": null, "go_backwards": false, "units": 1024, "recurrent_constraint": null, "bias_initializer": {"class_name": "Zeros", "config": {}}, "bias_constraint": null, "implementation": 1, "return_sequences": true, "unit_forget_bias": true, "unroll": false, "recurrent_initializer": {"class_name": "Orthogonal", "config": {"gain": 1.0, "seed": null}}, "use_bias": true, "kernel_initializer": {"class_name": "VarianceScaling", "config": {"distribution": "uniform", "seed": null, "mode": "fan_avg", "scale": 1.0}}, "kernel_constraint": null, "return_state": false, "name": "lstm_2", "activity_regularizer": null, "stateful": false, "recurrent_dropout": 0.0, "recurrent_regularizer": null, "activation": "tanh", "recurrent_activation": "hard_sigmoid", "bias_regularizer": null, "trainable": true, "dropout": 0.0}}, "trainable": true, "merge_mode": "concat", "name": "bidirectional_2"}, "name": "bidirectional_2", "inbound_nodes": [[["bidirectional_1", 0, 0, {}], ["bidirectional_1", 0, 3, {}], ["bidirectional_1", 0, 4, {}], ["bidirectional_1", 0, 1, {}], ["bidirectional_1", 0, 2, {}]]]}, {"class_name": "CRF", "config": {"use_boundary": true, "kernel_regularizer": null, "units": 24, "bias_initializer": {"class_name": "Zeros", "config": {}}, "test_mode": "viterbi", "unroll": false, "use_bias": true, "bias_constraint": null, "kernel_constraint": null, "boundary_regularizer": null, "sparse_target": false, "boundary_constraint": null, "activation": "linear", "kernel_initializer": {"class_name": "VarianceScaling", "config": {"distribution": "uniform", "seed": null, "mode": "fan_avg", "scale": 1.0}}, "chain_regularizer": null, "bias_regularizer": null, "chain_initializer": {"class_name": "Orthogonal", "config": {"gain": 1.0, "seed": null}}, "learn_mode": "join", "boundary_initializer": {"class_name": "Zeros", "config": {}}, "name": "crf_1", "chain_constraint": null, "input_dim": 2048, "trainable": true}, "name": "crf_1", "inbound_nodes": [[["bidirectional_2", 0, 0, {}]]]}], "input_layers": [["input_1", 0, 0], ["input_2", 0, 0], ["input_4", 0, 0]], "name": "model_3", "output_layers": [["crf_1", 0, 0]]}, "class_name": "Model", "backend": "tensorflow"}